unirep/evotuned_gfp_weights/fully_connected_weights:0.npy (npy, 190080 bytes, 1 tensors)

array f4 [1900, 25]
0	0xbcf3881b	-0.029727986
1	0x3da2f44f	0.079567544
2	0xbe65514c	-0.22394294
3	0x3fcc35c6	1.595391
4	0xbd9c3e89	-0.07629115
5	0xbe460a7b	-0.19339935
6	0xbd9c711a	-0.0763876
7	0x3d640510	0.05566889
8	0x3e8a133e	0.26967806
9	0xbe3479f9	-0.17624654
10	0xbdc22b6f	-0.094809406
11	0xbe0782ca	-0.13233486
12	0xbcb25145	-0.021767268
13	0x3d917077	0.07101529
14	0xbd8344be	-0.06409596
15	0xbdb5a09c	-0.088685244
16	0xbe04ad1a	-0.12956658
17	0xbd9e534e	-0.07730733
18	0xbea47da6	-0.32127112
19	0xbcf95190	-0.0304344
20	0xbdb97de7	-0.09057217
21	0xbe15ce4f	-0.14629482
22	0xbde9b663	-0.11411741
23	0xbe2800dd	-0.1640658
24	0xbefc313a	-0.49256307
25	0x3c7940a4	0.015213165
26	0x3d048f3f	0.032363173
27	0x3b4dd644	0.003140823
28	0xbc2c3080	-0.01050961
29	0xbc84f6fa	-0.016231049
30	0x3cc8f5fa	0.024531353
31	0xbc2b7554	-0.010464985
32	0x3cf42974	0.029804923
33	0x3cd73c06	0.026273739
34	0x3beb84bd	0.0071874545
35	0xbbd35c04	-0.006450178
36	0x3d4423ae	0.04788559
37	0x3c102273	0.008797276
38	0x3c4722dd	0.012154308
39	0x3ceaa8ab	0.02864488
40	0x3d0782dd	0.033083785
41	0x3d27758d	0.04088359
42	0x3cab95c3	0.020945435
43	0x3ce155a3	0.027506655
44	0x3d803beb	0.062614284
45	0x3c9dd999	0.019268798
46	0x3d103b90	0.035213053
47	0x3ca1001a	0.019653369
48	0x3c23673c	0.009973343
49	0x3d680aa0	0.056650758
50	0xbda21230	-0.07913625
51	0xbe240793	-0.16018514
52	0xbe2ab2c4	-0.16669756
53	0x3cf1b835	0.029506782
54	0x3d3a48a3	0.045479428
55	0x3d033054	0.03202851
56	0x3caab449	0.02083792
57	0x3e5926c3	0.21206193
58	0xbd44384a	-0.047905244
59	0xbc1614c8	-0.009160228
60	0x3d5c79a2	0.053826936
61	0x3d95fba4	0.07323387
62	0x3d36acee	0.044598512
63	0xbd6e8717	-0.0582343
64	0x3e19fb3a	0.15037242
65	0xbbaff172	-0.0053693587
66	0x3cc46b78	0.023977026
67	0xbdc321c7	-0.09527927
68	0xbe25ac75	-0.16179068
69	0x3d0927ad	0.033485103
70	0xbcb7cda8	-0.022436932
71	0x3dc1eb79	0.09468741
72	0x3c8d2c60	0.017233074
73	0x3da84ae8	0.08217412
74	0x3d220866	0.03955879
75	0x3cd8213d	0.026383037
76	0xbc2e228a	-0.010628352
77	0x3d6f5826	0.058433674
78	0x3d7e4a0f	0.062082347
79	0x3d1d10f4	0.038346246
80	0x3cf74f5d	0.03018921
81	0x3d953cb3	0.07286968
82	0x3d8b2cbd	0.067956425
83	0x3c59b22b	0.013287107
84	0x3d168de0	0.036756396
85	0xbd656282	-0.056002147
86	0x3e209222	0.15680745
87	0xbcc738eb	-0.024319133
88	0x3dba8bbf	0.09108686
89	0x3d19a3ae	0.037509613
90	0xbd1dc205	-0.03851511
91	0xbaf85a25	-0.0018947764
92	0xbb631b84	-0.0034653852
93	0x3d63c02e	0.0556032
94	0xbd2f9056	-0.04286226
95	0xbccfa49b	-0.025347045
96	0x3df7bc45	0.120964564
97	0x3d5a18cd	0.053246308
98	0x3de69a90	0.11259949
99	0x3ccaa44d	0.024736548
100	0x3bc9b736	0.0061558736
101	0x3be42ddd	0.006963475
102	0x3c5a4130	0.013321206
103	0xbc2fca5d	-0.0107293995
104	0xbb7771a8	-0.0037756953
105	0xbb94a5a5	-0.004536348
106	0xbc18068f	-0.009278907
107	0xbc5a8526	-0.013337409
108	0x3d1bffa3	0.03808559
109	0x3c7777b6	0.015104225
110	0xbd34b192	-0.044114657
111	0xbdf9aa93	-0.121907376
112	0xbb90900f	-0.0044117044
113	0xbd1209df	-0.035653945
114	0xbbf06475	-0.007336194
115	0x3c8f2737	0.017474754
116	0xbc90781f	-0.017635403
117	0xbacdaed4	-0.0015692362
118	0x3cdc05ae	0.026858177
119	0xbbe8dfee	-0.0071067726
120	0xbc9e9892	-0.01935986
121	0xbe335692	-0.17513493
122	0xbe150f1c	-0.14556545
123	0xbe36ca74	-0.17850667
124	0xbd0a6089	-0.03378347
125	0xbcac0b41	-0.02100146
126	0xbea2fc9a	-0.31833345
127	0xbde6f332	-0.112768546
128	0xbe7b477c	-0.24538988
129	0x3e0719ab	0.13193385
130	0xba97e637	-0.0011588995
131	0xbdf5ca12	-0.120014325
132	0xbd1f4583	-0.03888465
133	0x3bfbaa40	0.0076802075
134	0xbe87500e	-0.26428264
135	0xbdeeefb5	-0.11666814
136	0xbb359df4	-0.0027712556
137	0xbc9a7c26	-0.018858027
138	0x3e367ce8	0.17821085
139	0xbcb94fd1	-0.022621067
140	0x3d3b7189	0.045762572
141	0x3d99e2e6	0.075139806
142	0x3dd70c62	0.10500409
143	0x3d37261d	0.044714082
144	0x3d180ecc	0.037123486
145	0x3e252a6f	0.16129468
146	0x3d86bfab	0.065795265
147	0x3d045564	0.032307997
148	0x3d1583ab	0.03650252
149	0x3cdf87a6	0.027286362
150	0x3d1dc5fc	0.03851889
151	0xbd7ccede	-0.06172072
152	0xbc6a9bda	-0.0143193845
153	0xbd8dfa31	-0.06932486
154	0xbd4aea3d	-0.049539793
155	0xbcef77cb	-0.029231926
156	0xbd945497	-0.07242697
157	0xbd085704	-0.03328611
158	0xbd9755c0	-0.073894024
159	0xbd00da18	-0.03145799
160	0xbc9a2c6f	-0.018820016
161	0xbe8837ef	-0.26605174
162	0xbd7237e5	-0.059135336
163	0xbd87c75c	-0.06629822
164	0xbbd20c4e	-0.0064101582
165	0xbb3ae89f	-0.002852
166	0x3d18e398	0.037326425
167	0x3d4f715d	0.05064522
168	0x3d0ab59c	0.033864602
169	0x3cfee319	0.031114148
170	0x3d5ff53a	0.054677226
171	0xbe849f58	-0.2590282
172	0xbe712b25	-0.23551615
173	0xbe943336	-0.2894532
174	0xbd574e59	-0.052564953
175	0xbdede472	-0.11615838
176	0x3e58e9ac	0.21182889
177	0x3e1d407a	0.15356627
178	0x3e0d19aa	0.13779321
179	0x3d5456be	0.051840536
180	0x3d06de84	0.03292705
181	0x3db43fb1	0.08801211
182	0xbe1fed55	-0.15617879
183	0x3e3350d0	0.17511296
184	0x3e3cd3e7	0.1844021
185	0xbe4ee254	-0.20203525
186	0xbcc97f01	-0.024596693
187	0x37a74ae0	1.9942818e-05
188	0x3de61c90	0.112359166
189	0xbe1f6624	-0.15566307
190	0xbe98a06d	-0.29809895
191	0xbdf2d152	-0.11856331
192	0x3b31948d	0.00270966
193	0x3e15b047	0.14618026
194	0x3ccd4294	0.025056161
195	0xbe0db17a	-0.13837233
196	0xbd71d3e0	-0.05903995
197	0xbc4b88b1	-0.0124227265
198	0xbc3448c8	-0.0110036805
199	0x3e1ece9c	0.15508503
200	0x3d0daacc	0.034586713
201	0xbe836a77	-0.25667164
202	0xbd99390d	-0.07481585
203	0xbd0e5e17	-0.0347577
204	0xbd0657a9	-0.032798443
205	0x3dbb6435	0.09149972
206	0x3c017a01	0.007902623
207	0x39bf61f3	0.00036503337
208	0x3db50395	0.08838574
209	0x3e36ca84	0.17850691
210	0xbc7ff86e	-0.015623195
211	0x3f0e00be	0.5546988
212	0x3e049bcf	0.12950061
213	0xbdf151ab	-0.11783155
214	0x3e6de66f	0.23232435
215	0x3cbf88e9	0.023380714
216	0xbd34ec4f	-0.044170674
217	0x3d0b4349	0.033999715
218	0xbce36d25	-0.027762005
219	0xbd0a6720	-0.033789754
220	0x3e326c64	0.1742416
221	0x3efb4740	0.49077797
222	0x3f09631d	0.5366686
223	0x3f002ce6	0.5006851
224	0x3d1d2246	0.038362764
225	0xbd1382e7	-0.03601351
226	0xbd15e6ca	-0.03659705
227	0xbcd62457	-0.026140375
228	0xbc5f318b	-0.013622652
229	0xbcd926b1	-0.026507707
230	0xbd070445	-0.032963056
231	0xbc9c1fa6	-0.01905806
232	0xbc9a7926	-0.018856596
233	0xbcd0a9d3	-0.025471603
234	0xbd27df59	-0.040984485
235	0xbd1c4aaa	-0.038157143
236	0xbe11f513	-0.14253645
237	0xbd28655a	-0.04111228
238	0xbca197b8	-0.019725665
239	0xbcc8f3e8	-0.024530366
240	0xbd2014f0	-0.039082468
241	0xbd17b438	-0.037037104
242	0xbcf6bd0e	-0.030119445
243	0xbd06ccb8	-0.03291008
244	0xbd1c0e5c	-0.03809963
245	0xbd62924c	-0.0553153
246	0xbe126791	-0.1429732
247	0xbdeb5600	-0.114910126
248	0xbe1479e2	-0.1449962
249	0xbd93985d	-0.07206795
250	0x3cbee3e8	0.023302034
251	0xbd18dc01	-0.037319187
252	0xbc26db0f	-0.010184064
253	0x3bf1e7a0	0.007382348
254	0x3c68374a	0.014173338
255	0xbb8b7a6c	-0.004256537
