64_weights/fully_connected_weights:0.npy (npy, 6480 bytes, 1 tensors)

array f4 [64, 25]
000000 e7 15 45 be d1 6f 9b 3e a5 26 10 3f c6 5c c3 be
       -0.19246636 0.30358747 0.56308967 -0.38156718
000010 d2 6f aa bd 5e 34 f8 be 5d c6 7d 3e 2e 47 36 bd
       -0.08322109 -0.48477453 0.24782701 -0.044501476
000020 86 57 29 be 4d a7 52 3f 68 b1 5b 3e 89 af 7f 3f
       -0.16537294 0.8228653 0.21454394 0.9987722
000030 ca 4a 9b 3e aa b4 e3 3e 77 36 20 bd f2 e5 36 3e
       0.30330497 0.44473773 -0.03911444 0.17861155
000040 67 7d 83 bd f6 6b d7 3d 99 15 00 be bf b2 d9 3d
       -0.06420403 0.10518639 -0.12508239 0.10629796
000050 51 a5 2b 3f aa 94 57 3f fa 09 87 3f b5 49 82 3f
       0.6704913 0.8421122 1.054992 1.0178744
000060 d0 bb dc 3d 2e 1a d9 3d 21 f4 a9 3e c4 e7 c6 bd
       0.1077801 0.106006965 0.33194068 -0.097121745
000070 f6 aa 06 bd 15 94 2f bd 82 a4 51 3e 60 84 59 bf
       -0.032877885 -0.04286583 0.20472911 -0.84967613
000080 6a ce 34 bf fd 7b e2 be 62 2b e1 3e 7f 91 4e bd
       -0.7062746 -0.4423522 0.4397841 -0.050431725
000090 2a 16 2f bf cf cd 72 3e 1c 9f 03 bf 8a f9 ca bd
       -0.68393195 0.23711322 -0.51414657 -0.09910877
0000a0 1a 7d 13 3f c5 8c 80 be 88 12 37 bd 10 79 d4 bd
       0.57612765 -0.251074 -0.044695407 -0.10374653
0000b0 dd 83 57 bd fc 9a e9 3d c2 4f 84 bf c6 9b 9b bf
       -0.05261599 0.11406514 -1.033684 -1.2156913
0000c0 21 81 33 bf 10 c0 94 bc 7d 88 58 3f 1e 98 ba be
       -0.7011891 -0.018157989 0.84583265 -0.3644418
0000d0 1e e6 0d bf 25 73 c7 be ed fd 3a bf 9e ea 11 bf
       -0.55429256 -0.38955036 -0.7304371 -0.5699862
0000e0 6a 68 4b 3d 11 5c c0 3e bd 8d b2 be 63 e2 70 be
       0.049660124 0.3757024 -0.34873763 -0.2352386
0000f0 54 fa 8a 3f 38 db f3 3e 7e 38 ea 3c db 65 f0 bd
       1.0857644 0.47628188 0.02859139 -0.117381774
000100 f5 e0 29 3f 39 f0 59 3f 81 25 46 3f 5b 49 0b 3f
       0.6635888 0.85132176 0.77400976 0.54408807
000110 55 3b 4c be 6b 1e c1 3e 27 19 63 3f 50 29 6e 3e
       -0.19944508 0.3771852 0.88710254 0.23257947
000120 bc e3 1e 3f 5d 9f 42 3e 74 e1 9b be 7c e7 cd bc
       0.62066245 0.19006105 -0.30445445 -0.025134794
000130 8c 5e a2 bd b1 3f 39 3d 76 27 0b bc 94 3f 05 bd
       -0.0792819 0.045226756 -0.008493295 -0.032531336
000140 1b b4 06 be bd e6 9a bd e9 8b 48 bd 05 eb 58 3e
       -0.13154642 -0.07563541 -0.048961554 0.21183403
000150 ed 86 4a 3d d6 13 b6 3e 0f 87 87 3f 6c 75 4a 3d
       0.04944508 0.3556201 1.0588092 0.04942839
000160 9e 9e 2e bd ed b9 37 3d 88 a8 ee bd 3d 79 c2 bd
       -0.042631738 0.044855047 -0.116532385 -0.094957806
000170 83 62 09 bd 2d 33 bb bd 5f 99 82 be dc 05 fe bd
       -0.033541214 -0.091406204 -0.25507638 -0.12403461
000180 be 91 9c 3f bf d4 90 3f a7 35 73 3f 9b 49 1a 3f
       1.2231977 1.1314925 0.9500374 0.60268563
000190 e2 ef 26 3f 71 13 d8 be f2 be 8c 3e a1 f4 97 be
       0.6520978 -0.42202333 0.2748943 -0.29678825
0001a0 11 b1 11 3f d4 0b ca be 4a 26 0e 3f f2 17 41 3f
       0.56910807 -0.3946215 0.55527174 0.7542716
0001b0 44 f9 a0 bd dd a2 87 be 2f 46 60 3e 8c a9 14 3f
       -0.07860044 -0.26491442 0.21901773 0.5807121
0001c0 78 66 56 3f f6 73 95 bf 02 97 83 3f 1e 92 ef 3e
       0.83750105 -1.1676013 1.0280459 0.46791166
0001d0 38 d7 e9 3e f7 07 85 be 01 36 23 bf 21 d9 3f be
       0.4567201 -0.2598264 -0.6375428 -0.18735172
0001e0 43 e6 15 be 36 b7 de 3e 38 92 81 3e 30 78 a7 3e
       -0.14638619 0.43499154 0.2530687 0.32708883
0001f0 6d 40 05 be 29 5e f0 bc df 45 0d 3f 9a 9a 88 be
       -0.13012858 -0.029341774 0.5518474 -0.26680452
000200 32 84 5d 3f e6 0f a9 be 6a bd 25 3d 7f 5b 6a 3d
       0.8652984 -0.33019942 0.040463842 0.057216164
000210 b0 f0 de ba 0d eb 15 be fe e8 8d 3e 98 a7 34 3f
       -0.0017008986 -0.14640446 0.2771682 0.7056823
000220 df 3b e2 3e 02 e3 ca 3d 96 04 90 be 8d a2 42 3e
       0.44186303 0.099065796 -0.281285 0.1900732
000230 b5 f5 f4 3c a8 22 d0 bd 02 6e 1b be 48 dc 74 be
       0.029902318 -0.1016286 -0.15178683 -0.23912156
000240 c3 7c 6f be e9 ad c1 3d 72 0e 91 3e c0 17 f0 3d
       -0.23387437 0.09456999 0.28331333 0.1172328
000250 0b 03 89 3e 92 d8 a7 3d 40 a6 97 3d 6d 37 11 bf
       0.26760134 0.081956044 0.074047565 -0.567252
000260 5f 7c 23 bf f4 59 cc be 33 4e 8c 3d 35 de 85 3e
       -0.6386165 -0.3991238 0.06850853 0.26146093
000270 d2 5e b9 bd 2b ee 01 3f 7c f1 42 bd 84 e0 17 3c
       -0.09051289 0.5075404 -0.04759358 0.009269837
000280 ab 89 d3 3e 82 f5 f4 be 98 71 a3 3e 59 37 8a be
       0.4131597 -0.47843558 0.31922603 -0.26995352
000290 20 f6 c9 bd 6f 54 93 3e 9d d8 49 3e 24 ab 07 be
       -0.09861398 0.28775355 0.19711538 -0.13248879
0002a0 dc 92 77 3d 48 22 8d 3d a9 00 68 be fb 97 b1 bd
       0.06044279 0.06891304 -0.22656502 -0.08671566
0002b0 1a f6 6f bd fd 2d 42 3d 44 80 4f bc f4 00 40 bd
       -0.05858431 0.04740714 -0.012664858 -0.04687591
0002c0 2b a9 b6 be c4 96 09 bf 78 09 85 3e 5a 03 7e be
       -0.3567594 -0.53745675 0.25983787 -0.24805966
0002d0 39 ae be 3e 6a 45 e2 bd 66 7e dd bd 28 22 89 bc
       0.37242296 -0.11048396 -0.10815124 -0.01673992
0002e0 ac 4a c4 bd c7 de 2e bf d2 a0 83 bf 99 2a 2a 3e
       -0.09584555 -0.6830868 -1.0283453 0.16617812
0002f0 df 78 94 bd 80 a0 1c 3e 1f 79 a1 3e d9 0e a3 3e
       -0.07249617 0.15295601 0.3153772 0.31847265
000300 fd fc 17 be dc b2 e5 be 3f dc 32 be b2 11 8f 3e
       -0.14842601 -0.4486302 -0.1746683 0.27943188
000310 22 68 9f bf 4b dc a7 bf 30 95 91 bf 73 94 b2 3d
       -1.2453654 -1.3114103 -1.1373653 0.08719721
000320 f7 65 55 be 59 75 9e 3e 5c ca 7f be 44 bb 17 bd
       -0.20839678 0.30948904 -0.24979538 -0.037043825
000330 4e 03 0b be b4 2a 69 be fd 6b 67 3e 7a c0 29 be
       -0.1357548 -0.22770196 0.22599788 -0.1657733
000340 18 62 cb be 94 b7 ba be f5 63 e4 be 4e 05 9d bf
       -0.39723277 -0.36468184 -0.4460751 -1.2267244
000350 b3 52 8a 3e 0f 5d 10 be ca a2 13 3e f5 e8 7b be
       0.2701622 -0.14097999 0.14417568 -0.24600585
000360 88 bf 49 3e ff 9d ff bd be 22 47 be 50 ca 30 bf
       0.1970197 -0.12481307 -0.19446847 -0.69058704
000370 11 c4 2a 3d 54 c3 82 bf 34 f0 85 bf e3 f0 8a bf
       0.04169089 -1.021586 -1.0463929 -1.0854763
000380 3e 72 47 3e 51 b8 08 3f ef 3c 04 3e 38 43 b1 3d
       0.19477174 0.53406245 0.1291387 0.08655399
000390 47 42 30 be 92 60 ff 3e dc 2f 84 be ef 35 02 bb
       -0.17212783 0.49878365 -0.25817764 -0.0019868573
0003a0 0e a5 00 bf 71 51 f0 3e bf d5 d8 be 35 84 09 3f
       -0.50251853 0.46937135 -0.42350575 0.53717357
0003b0 fe 67 7d 3d 6a 19 5c be a0 77 03 3d 79 6a c3 bd
       0.061866753 -0.2149407 0.032096505 -0.095417924
0003c0 52 c7 16 3e fd c7 9f 3e d2 6c 90 3e cf a6 af be
       0.14724472 0.31207266 0.28208023 -0.34306952
0003d0 e5 77 18 bf 72 28 b3 3e fe 89 1e 3e 50 c7 ee 3d
       -0.59557945 0.34991795 0.15482327 0.116591096
0003e0 4d 75 0e 3e 29 86 93 3c e7 51 52 3f 5a 7f 4c 3e
       0.13911934 0.018008308 0.82156223 0.19970456
0003f0 c5 f8 25 3f 4a 0b af 3e 6a 6a 43 bf d8 3e 9d 3e
       0.6483272 0.341883 -0.7633425 0.30712008
