256_weights/fully_connected_weights:0.npy (npy, 25680 bytes, 1 tensors)

array f4 [256, 25]
00000000: c2ec 9ebd 2ea5 90bb fb7d c3bd 415a 00bc
00000010: 5d33 4d3c 9413 02bd 895b a83a fd81 cb3c
00000020: 3181 713c 7d86 b2bc e4cd 803f 3922 d03d
00000030: 7b28 2c3d 6672 6b3d 29d5 b3bc 8d4d c7bc
00000040: db53 38bd 259d 993b b7ea 7d3c 02e6 6f3d
00000050: 1dac 00bd ebd3 c73d 45b6 ab3d 7d9d f93d
00000060: bbea 183e 635c 483c c3a7 313e 78c3 7d3e
00000070: d7bd 8f3e 6c03 493e 9f8b 773e 1ec5 16bf
00000080: 0065 c3be 4f71 ba3d 9b0f 823e 6906 63be
00000090: a019 d13d ee14 8cbe 5ae6 9bbd 842a bbbe
000000a0: 2c9a 393d 9c79 053d 4470 cc3d 300f e33d
000000b0: 706f 56bd 9c8b 163e 1b77 a7bd 446a 26be
000000c0: 86da f33d 895f 023e cfff 253e e285 48be
000000d0: 7721 15be 8fbf 6abe aa05 12be 3b67 4ebe
000000e0: fb2e c6bd 17f3 8ebd 801a 19be dc7b 6dbe
000000f0: f5df 733e c199 323d fe17 97bb 6c6f 00be
00000100: 09c3 2a3e c4cc 743e 6d13 023e 7c97 3a3e
00000110: 804a 473d f9aa f2bd 5268 4d3e faf8 a5bd
00000120: 99ef dc3d 6787 edbd 6ce2 18be 92a1 593d
00000130: 0cde c53d 054c cc3d 3ed5 cb3c 8492 a03b
00000140: 9dcc 6dbd e782 6a3c a51c b1bd ba2a a43d
00000150: 1b5c 113c b639 0f3d 0349 823d b1f4 c63d
00000160: 87cb a0be 2a8d edbc 451c a1bd fb8f 0abd
00000170: e9aa 0e3e 3466 3dbd 7f0c ce3d a160 313d
00000180: 6971 d73d 45d8 3a3d a52a bfbd 9abb e33e
00000190: 8e8d 233e 22be 7d3d d96b 5d3e dde0 5ebd
000001a0: a7c5 b43b 5621 39be 454c 293d 5548 303d
000001b0: dc53 fdbd a461 1ebd 4ccb 293f e56c 6b3e
000001c0: 5258 033e d2aa 51be fc12 353e 5556 da3d
000001d0: 5819 ae3c aa1a c53d 725f a63c 55a0 503e
000001e0: f237 573d 2b56 173e 8d42 0e3d 3b73 9f3d
000001f0: f8d9 41bc 448f f7bd 4bc5 ed3d 22ff 7f3c
00000200: cd9d b23e 5e32 d5bd f988 8c3d a28a 6e3d
00000210: acfe ab3c 623f 2fbe e892 253c 81e6 da3e
00000220: 40c0 433e f9a0 8dbd 665a 18be bf91 113e
00000230: 7298 123e f80d e23d 7f25 77bd 90f0 78be
00000240: ac22 74be 2458 9b3d 4a68 b13d 982c aebc
00000250: 7b3e 873d f3ee 4e3c d2e3 053e e631 8cbd
00000260: ba9d bfbe 347a 643d 42c1 35bd d623 7d3d
00000270: cddb 64bb f7ed 2b3e de45 51be babf 5e3d
00000280: 60ea 5b3f 92f2 1ebe 9c7d ccbc 1c9f 9c3d
00000290: 8415 10bd 4386 493e 85d2 1f3e 0224 21be
000002a0: 04b4 69be 726e af3d f392 8fbe 1e3e 9b3d
000002b0: f45b dc3d f534 233e a97b 31bd c68d 0b3d
000002c0: ee74 50bd d336 a9be 027e cc3d 5b0d dabd
000002d0: 90fc 263d d509 30bd 9227 f03d 1577 27bd
000002e0: dcdb 313d 1432 80be 6dba 343d 9dd5 123e
000002f0: 7723 3f3e 287d 1f3d 9f0d 2e3e 83c5 2a3e
00000300: 7a57 46be 5e19 d1be 12b6 13bf 6e94 68ba
00000310: f41e e7bc f038 64bd 3d46 593d 0b33 8a3d
00000320: b31e 893e ebf2 913d 2577 8b3d 07f4 e23e
00000330: 1ded 55be 53c4 88be 49f7 113e 1330 da3c
00000340: 3d10 623e edaa 2f3e 0ea3 7a3d 4200 adbd
00000350: e497 53be 13ca ec3d 245f a0bd b7ef 92be
00000360: f505 b33e c9fd d93d 6e24 523d f2b2 3f3d
00000370: 435a 73bd 4b4d 583d fb00 753d d9d7 0a3d
00000380: 9655 aebc aacc 753e c69c 20be 33ef 62be
00000390: 47cc e8bc e110 f13d 38fe 67bd add8 853d
000003a0: 6769 423c e6af 6f3e bb92 59be 52f2 533e
000003b0: b7a7 8dbb 59bc 78be a214 88bd 1797 83be
000003c0: fb11 0a3d 08ec 173d 8f2c 193e 64c2 3d3e
000003d0: 0d87 d6bd 8e0a b93d 9b04 0c3d 3db9 7c3c
000003e0: 7ca8 c03c 8549 8d3d d2a2 9ebc 4a88 14bd
000003f0: 37cc aebd 3e52 833d d738 c8bd 8511 003e
-0.07760002 -0.004414222 -0.09545513 -0.007834018 0.012524453 -0.031756952 0.0012844662 0.024842257
0.014740274 -0.021792645 1.0062833 0.101627775 0.042030793 0.057482146 -0.021952229 -0.024328971
-0.045001846 0.0046879225 0.015497855 0.058568962 -0.03141414 0.09757217 0.083843745 0.12188242
0.14933293 0.012229058 0.17349152 0.24781597 0.28074524 0.19630212 0.24174355 -0.58894527
-0.38162994 0.09103643 0.2540253 -0.22170414 0.10209966 -0.27359718 -0.076122954 -0.36555874
0.045313045 0.03258668 0.099823505 0.11086881 -0.05235237 0.14701694 -0.081770144 -0.16251475
0.119069144 0.12731756 0.16210864 -0.19582322 -0.14563547 -0.22924636 -0.14259973 -0.20156567
-0.096769296 -0.069799595 -0.14951515 -0.2319178 0.23815902 0.043603662 -0.0046110144 -0.12542504
0.16675963 0.23906237 0.12702723 0.18221849 0.048655033 -0.11849017 0.20059326 -0.08104129
0.10787887 -0.115980916 -0.14930123 0.0531326 0.09661493 0.09975437 0.024881955 0.0049002785
-0.058056463 0.014313436 -0.08648042 0.08015962 0.008872057 0.034967147 0.06361582 0.0971464
-0.3140528 -0.028997976 -0.0786672 -0.033828717 0.13932385 -0.046240047 0.10060977 0.043305043
0.10519678 0.045616407 -0.09334306 0.44479066 0.15971968 0.061948903 0.21623172 -0.054413665
0.005516726 -0.18079123 0.041332502 0.04303773 -0.123695105 -0.038667336 0.6632583 0.22990759
0.1282666 -0.20475319 0.17683023 0.10660998 0.02125232 0.096242264 0.020309184 0.20373662
0.052543588 0.14778964 0.034731437 0.0778565 -0.011831753 -0.120878726 0.11609896 0.015624793
0.34886017 -0.104099974 0.06862063 0.05823768 0.02099546 -0.17114022 0.010105826 0.42753986
0.19116306 -0.06915469 -0.14878234 0.14215754 0.14315966 0.110378206 -0.060338493 -0.24310517
-0.23841351 0.07585171 0.0866247 -0.021261498 0.06603714 0.012630212 0.13075188 -0.06845455
-0.37425023 0.055780604 -0.044373758 0.061801754 -0.003492105 0.16789995 -0.20436808 0.054382063
0.859045 -0.1552222 -0.024962239 0.07647535 -0.03517677 0.19680123 0.1560765 -0.15736392
-0.22822577 0.08565988 -0.280418 0.07580207 0.10759726 0.1593817 -0.043330822 0.034070753
-0.050892763 -0.3304964 0.099849716 -0.106470786 0.040768206 -0.042978127 0.117262974 -0.04088505
0.043422565 -0.25038207 0.044123102 0.143393 0.18665873 0.038937718 0.16997384 0.16676907
-0.19369307 -0.40839666 -0.5769969 -0.00088722154 -0.028213002 -0.055718362 0.0530455 0.06748017
0.26781234 0.07126411 0.068098344 0.44326803 -0.20891233 -0.26712283 0.14254488 0.026634252
0.22076507 0.17155047 0.061190657 -0.08447315 -0.2066341 0.1156198 -0.07830647 -0.28698513
0.34965482 0.10644109 0.051304273 0.046801515 -0.059412252 0.052808087 0.05981539 0.033897255
-0.021281045 0.24003854 -0.15684804 -0.2216156 -0.02841772 0.117707975 -0.056638926 0.06535468
0.01186595 0.23406944 -0.2124738 0.20697907 -0.0043229717 -0.24290599 -0.066445604 -0.2570121
0.033708554 0.03709033 0.14958404 0.18531185 -0.10474978 0.09035216 0.03418408 0.015425024
0.02351784 0.06898788 -0.019364748 -0.036262788 -0.08535045 0.06412171 -0.09776466 0.12506683
